…
(240L, 8L, 16L, 8L)
(240L, 8L)


 days (test):  ['20140921', '20140922', '20140923', '20140924', '20140925', '20140926', '20140927', '20140928', '20140929', '20140930']
==========
compiling model...
**at the first time, it takes a few minites to compile if you use [Theano] as the backend**
____________________________________________________________________________________________________
Layer (type)                     Output Shape          Param #     Connected to
====================================================================================================
input_1 (InputLayer)             (None, 6, 16, 8)      0
____________________________________________________________________________________________________
input_2 (InputLayer)             (None, 8, 16, 8)      0
____________________________________________________________________________________________________
input_3 (InputLayer)             (None, 8, 16, 8)      0
____________________________________________________________________________________________________
convolution2d_1 (Convolution2D)  (None, 64, 16, 8)     3520        input_1[0][0]
____________________________________________________________________________________________________
convolution2d_11 (Convolution2D) (None, 64, 16, 8)     4672        input_2[0][0]
____________________________________________________________________________________________________
convolution2d_21 (Convolution2D) (None, 64, 16, 8)     4672        input_3[0][0]
____________________________________________________________________________________________________
activation_1 (Activation)        (None, 64, 16, 8)     0           convolution2d_1[0][0]
____________________________________________________________________________________________________
activation_10 (Activation)       (None, 64, 16, 8)     0           convolution2d_11[0][0]
____________________________________________________________________________________________________
activation_19 (Activation)       (None, 64, 16, 8)     0           convolution2d_21[0][0]
____________________________________________________________________________________________________
convolution2d_2 (Convolution2D)  (None, 64, 16, 8)     36928       activation_1[0][0]
____________________________________________________________________________________________________
convolution2d_12 (Convolution2D) (None, 64, 16, 8)     36928       activation_10[0][0]
____________________________________________________________________________________________________
convolution2d_22 (Convolution2D) (None, 64, 16, 8)     36928       activation_19[0][0]
____________________________________________________________________________________________________
activation_2 (Activation)        (None, 64, 16, 8)     0           convolution2d_2[0][0]
____________________________________________________________________________________________________
activation_11 (Activation)       (None, 64, 16, 8)     0           convolution2d_12[0][0]
____________________________________________________________________________________________________
activation_20 (Activation)       (None, 64, 16, 8)     0           convolution2d_22[0][0]
____________________________________________________________________________________________________
convolution2d_3 (Convolution2D)  (None, 64, 16, 8)     36928       activation_2[0][0]
____________________________________________________________________________________________________
convolution2d_13 (Convolution2D) (None, 64, 16, 8)     36928       activation_11[0][0]
____________________________________________________________________________________________________
convolution2d_23 (Convolution2D) (None, 64, 16, 8)     36928       activation_20[0][0]
____________________________________________________________________________________________________
merge_1 (Merge)                  (None, 64, 16, 8)     0           convolution2d_1[0][0]
                                                                   convolution2d_3[0][0]
____________________________________________________________________________________________________
merge_5 (Merge)                  (None, 64, 16, 8)     0           convolution2d_11[0][0]
                                                                   convolution2d_13[0][0]
____________________________________________________________________________________________________
merge_9 (Merge)                  (None, 64, 16, 8)     0           convolution2d_21[0][0]
                                                                   convolution2d_23[0][0]
____________________________________________________________________________________________________
activation_3 (Activation)        (None, 64, 16, 8)     0           merge_1[0][0]
____________________________________________________________________________________________________
activation_12 (Activation)       (None, 64, 16, 8)     0           merge_5[0][0]
____________________________________________________________________________________________________
activation_21 (Activation)       (None, 64, 16, 8)     0           merge_9[0][0]
____________________________________________________________________________________________________
convolution2d_4 (Convolution2D)  (None, 64, 16, 8)     36928       activation_3[0][0]
____________________________________________________________________________________________________
convolution2d_14 (Convolution2D) (None, 64, 16, 8)     36928       activation_12[0][0]
____________________________________________________________________________________________________
convolution2d_24 (Convolution2D) (None, 64, 16, 8)     36928       activation_21[0][0]
____________________________________________________________________________________________________
activation_4 (Activation)        (None, 64, 16, 8)     0           convolution2d_4[0][0]
____________________________________________________________________________________________________
activation_13 (Activation)       (None, 64, 16, 8)     0           convolution2d_14[0][0]
____________________________________________________________________________________________________
activation_22 (Activation)       (None, 64, 16, 8)     0           convolution2d_24[0][0]
____________________________________________________________________________________________________
convolution2d_5 (Convolution2D)  (None, 64, 16, 8)     36928       activation_4[0][0]
____________________________________________________________________________________________________
convolution2d_15 (Convolution2D) (None, 64, 16, 8)     36928       activation_13[0][0]
____________________________________________________________________________________________________
convolution2d_25 (Convolution2D) (None, 64, 16, 8)     36928       activation_22[0][0]
____________________________________________________________________________________________________
merge_2 (Merge)                  (None, 64, 16, 8)     0           merge_1[0][0]
                                                                   convolution2d_5[0][0]
____________________________________________________________________________________________________
merge_6 (Merge)                  (None, 64, 16, 8)     0           merge_5[0][0]
                                                                   convolution2d_15[0][0]
____________________________________________________________________________________________________
merge_10 (Merge)                 (None, 64, 16, 8)     0           merge_9[0][0]
                                                                   convolution2d_25[0][0]
____________________________________________________________________________________________________
activation_5 (Activation)        (None, 64, 16, 8)     0           merge_2[0][0]
____________________________________________________________________________________________________
activation_14 (Activation)       (None, 64, 16, 8)     0           merge_6[0][0]
____________________________________________________________________________________________________
activation_23 (Activation)       (None, 64, 16, 8)     0           merge_10[0][0]
____________________________________________________________________________________________________
convolution2d_6 (Convolution2D)  (None, 64, 16, 8)     36928       activation_5[0][0]
____________________________________________________________________________________________________
convolution2d_16 (Convolution2D) (None, 64, 16, 8)     36928       activation_14[0][0]
____________________________________________________________________________________________________
convolution2d_26 (Convolution2D) (None, 64, 16, 8)     36928       activation_23[0][0]
____________________________________________________________________________________________________
activation_6 (Activation)        (None, 64, 16, 8)     0           convolution2d_6[0][0]
____________________________________________________________________________________________________
activation_15 (Activation)       (None, 64, 16, 8)     0           convolution2d_16[0][0]
____________________________________________________________________________________________________
activation_24 (Activation)       (None, 64, 16, 8)     0           convolution2d_26[0][0]
____________________________________________________________________________________________________
convolution2d_7 (Convolution2D)  (None, 64, 16, 8)     36928       activation_6[0][0]
____________________________________________________________________________________________________
convolution2d_17 (Convolution2D) (None, 64, 16, 8)     36928       activation_15[0][0]
____________________________________________________________________________________________________
convolution2d_27 (Convolution2D) (None, 64, 16, 8)     36928       activation_24[0][0]
____________________________________________________________________________________________________
merge_3 (Merge)                  (None, 64, 16, 8)     0           merge_2[0][0]
                                                                   convolution2d_7[0][0]
____________________________________________________________________________________________________
merge_7 (Merge)                  (None, 64, 16, 8)     0           merge_6[0][0]
                                                                   convolution2d_17[0][0]
____________________________________________________________________________________________________
merge_11 (Merge)                 (None, 64, 16, 8)     0           merge_10[0][0]
                                                                   convolution2d_27[0][0]
____________________________________________________________________________________________________
activation_7 (Activation)        (None, 64, 16, 8)     0           merge_3[0][0]
____________________________________________________________________________________________________
activation_16 (Activation)       (None, 64, 16, 8)     0           merge_7[0][0]
____________________________________________________________________________________________________
activation_25 (Activation)       (None, 64, 16, 8)     0           merge_11[0][0]
____________________________________________________________________________________________________
convolution2d_8 (Convolution2D)  (None, 64, 16, 8)     36928       activation_7[0][0]
____________________________________________________________________________________________________
convolution2d_18 (Convolution2D) (None, 64, 16, 8)     36928       activation_16[0][0]
____________________________________________________________________________________________________
convolution2d_28 (Convolution2D) (None, 64, 16, 8)     36928       activation_25[0][0]
____________________________________________________________________________________________________
activation_8 (Activation)        (None, 64, 16, 8)     0           convolution2d_8[0][0]
____________________________________________________________________________________________________
activation_17 (Activation)       (None, 64, 16, 8)     0           convolution2d_18[0][0]
____________________________________________________________________________________________________
activation_26 (Activation)       (None, 64, 16, 8)     0           convolution2d_28[0][0]
____________________________________________________________________________________________________
convolution2d_9 (Convolution2D)  (None, 64, 16, 8)     36928       activation_8[0][0]
____________________________________________________________________________________________________
convolution2d_19 (Convolution2D) (None, 64, 16, 8)     36928       activation_17[0][0]
____________________________________________________________________________________________________
convolution2d_29 (Convolution2D) (None, 64, 16, 8)     36928       activation_26[0][0]
____________________________________________________________________________________________________
input_4 (InputLayer)             (None, 8L)            0
____________________________________________________________________________________________________
merge_4 (Merge)                  (None, 64, 16, 8)     0           merge_3[0][0]
                                                                   convolution2d_9[0][0]
____________________________________________________________________________________________________
merge_8 (Merge)                  (None, 64, 16, 8)     0           merge_7[0][0]
                                                                   convolution2d_19[0][0]
____________________________________________________________________________________________________
merge_12 (Merge)                 (None, 64, 16, 8)     0           merge_11[0][0]
                                                                   convolution2d_29[0][0]
____________________________________________________________________________________________________
dense_1 (Dense)                  (None, 10)            90          input_4[0][0]
____________________________________________________________________________________________________
activation_9 (Activation)        (None, 64, 16, 8)     0           merge_4[0][0]
____________________________________________________________________________________________________
activation_18 (Activation)       (None, 64, 16, 8)     0           merge_8[0][0]
____________________________________________________________________________________________________
activation_27 (Activation)       (None, 64, 16, 8)     0           merge_12[0][0]
____________________________________________________________________________________________________
activation_28 (Activation)       (None, 10)            0           dense_1[0][0]
____________________________________________________________________________________________________
convolution2d_10 (Convolution2D) (None, 2, 16, 8)      1154        activation_9[0][0]
____________________________________________________________________________________________________
convolution2d_20 (Convolution2D) (None, 2, 16, 8)      1154        activation_18[0][0]
____________________________________________________________________________________________________
convolution2d_30 (Convolution2D) (None, 2, 16, 8)      1154        activation_27[0][0]
____________________________________________________________________________________________________
dense_2 (Dense)                  (None, 256)           2816        activation_28[0][0]
____________________________________________________________________________________________________
ilayer_1 (iLayer)                (None, 2, 16, 8)      256         convolution2d_10[0][0]
____________________________________________________________________________________________________
ilayer_2 (iLayer)                (None, 2, 16, 8)      256         convolution2d_20[0][0]
____________________________________________________________________________________________________
ilayer_3 (iLayer)                (None, 2, 16, 8)      256         convolution2d_30[0][0]
____________________________________________________________________________________________________
activation_29 (Activation)       (None, 256)           0           dense_2[0][0]
____________________________________________________________________________________________________
merge_13 (Merge)                 (None, 2, 16, 8)      0           ilayer_1[0][0]
                                                                   ilayer_2[0][0]
                                                                   ilayer_3[0][0]
____________________________________________________________________________________________________
reshape_1 (Reshape)              (None, 2, 16, 8)      0           activation_29[0][0]
____________________________________________________________________________________________________
merge_14 (Merge)                 (None, 2, 16, 8)      0           merge_13[0][0]
                                                                   reshape_1[0][0]
____________________________________________________________________________________________________
activation_30 (Activation)       (None, 2, 16, 8)      0           merge_14[0][0]
====================================================================================================
Total params: 906,272
Trainable params: 906,272
Non-trainable params: 0
____________________________________________________________________________________________________
==========
training model...
Train on 3132 samples, validate on 348 samples
Epoch 1/500
3132/3132 [==============================] - 140s - loss: 0.0409 - rmse: 0.1712 - val_loss: 0.0141 - val_rmse: 0.1176
…
